# Ultralytics YOLO ðŸš€, AGPL-3.0 license
# YOLOv9c
# 618 layers, 25590912 parameters, 104.0 GFLOPs

# Parameters
nc: 1 # number of classes
kpt_shape: [3, 3] # number of keypoints, number of dims (2 for x,y or 3 for x,y,visible)
scales: # model compound scaling constants, i.e. 'model=yolov8n-pose.yaml' will call yolov8-pose.yaml with scale 'n'
  # [depth, width, max_channels]
  n: [0.33, 0.25, 1024]
#  s: [0.33, 0.50, 1024]
#  m: [0.67, 0.75, 768]
#  l: [1.00, 1.00, 512]
#  x: [1.00, 1.25, 512]
# YOLOv8 ðŸš€ with MobileNetV3-Small Backbone
# Backboneé…ç½® (MobileNetV3-Smallé€‚é…640è¾“å…¥)
backbone:
  # [from, repeats, module, args]
#  - [-1, 1, Conv, [16, 3, 2, 1, 'HS']]   # 0-P1/2 (640->320)
  - [-1, 1, Conv_Hardwish, [16, 3, 2]]   # 0-P1/2 (640->320) 320*320*16

  # ä¸‹é‡‡æ ·é˜¶æ®µ
  - [-1, 1, InvertedResidual_Relu, [16, 16, 3, 1, True]]    # 2 320*320*16
  - [-1, 1, InvertedResidual_Relu, [16, 24, 3, 2, False]]   # 3-P2/4 (320->160)  160*160*24
  - [-1, 1, InvertedResidual_Relu, [24, 24, 3, 1, False]]   # 4 4-5  160*160*24
  - [-1, 1, InvertedResidual_Relu, [24, 24, 3, 1, False]]   #5

  - [-1, 1, InvertedResidual_HardWish, [24, 40, 5, 2, True]]  #6 6-P3/8 (160->80) 80*80*40
  - [-1, 1, InvertedResidual_HardWish, [40, 40, 5, 1, True]]  #6 7-8  80*80*40
  - [-1, 1, InvertedResidual_HardWish, [40, 40, 5, 1, True]]

  - [-1, 1, InvertedResidual_HardWish, [40, 48, 5, 2, True]]  #7 9-P4/16 (80->40)  40*40*48
  - [-1, 1, InvertedResidual_HardWish, [48, 48, 5, 1, True]] #8 10-11  40*40*48
  - [-1, 1, InvertedResidual_HardWish, [48, 48, 5, 1, True]]

  - [-1, 1, InvertedResidual_HardWish, [48, 96, 5, 2, True]]  #9 12-P5/32 (40->20) 20*20*96
  - [-1, 1, InvertedResidual_HardWish, [96, 96, 5, 1, True]]  #10 13-14  20*20*96
  - [-1, 1, InvertedResidual_HardWish, [96, 96, 5, 1, True]]

  # ç‰¹å¾å¢žå¼ºå±‚ (ä¿æŒç©ºé—´ç»´åº¦)
#  - [-1, 1, Conv, [576, 1, 1, 1, 'HS']]  # 15 (20x20)
  - [-1, 1, Conv_Hardwish, [576, 1, 1]]        #11 20*20*576
#  - [-1, 1, nn.Hardswish, []]         #12 20*20*576
  - [-1, 1, SPPF, [576, 5]]      #13      20*20*576         # 16 ç©ºé—´é‡‘å­—å¡”æ± åŒ–

# YOLOv8 Headé…ç½®
head:
  - [-1, 1, nn.Upsample, [None, 2, 'nearest']]   #14 17 ä¸Šé‡‡æ ·
  - [[-1, 6], 1, Concat, [1]]                   #15 18 æ‹¼æŽ¥P4(40)å’Œä¸Šé‡‡æ ·ç‰¹å¾
  - [-1, 1, C2f, [576, 3, True]]                 #16 19 (40x40)

  - [-1, 1, nn.Upsample, [None, 2, 'nearest']]   #17 20 ä¸Šé‡‡æ ·(40->80)
  - [[-1, 4], 1, Concat, [1]]                    #18 21 æ‹¼æŽ¥P3(80)å’Œä¸Šé‡‡æ ·ç‰¹å¾
  - [-1, 1, C2f, [288, 3, True]]                 #19 22 (80x80)

  - [-1, 1, Conv, [288, 3, 2]]                   #20 23 ä¸‹é‡‡æ ·(80->40)
  - [[-1, 14], 1, Concat, [1]]                   #21 24 æ‹¼æŽ¥ä¸­é—´ç‰¹å¾
  - [-1, 1, C2f, [576, 3, True]]                 #22 25 (40x40)

  - [-1, 1, Conv, [576, 3, 2]]                   #23 26 ä¸‹é‡‡æ ·(40->20)
  - [[-1, 10], 1, Concat, [1]]
  - [-1, 1, C2f, [1152, 3, True]]                #25 28 (20x20)

  # æ£€æµ‹å±‚ (å¯¹åº”80,40,20ä¸‰ä¸ªå°ºåº¦)
#  - [[22, 25, 28], 1, Detect, [nc]]  # è¾“å‡º(P3, P4, P5)
  - [[17, 20, 23], 1, Detect, [nc]]  # è¾“å‡º(P3, P4, P5)
